dqn_agent_weights.pth (torch, 29325 bytes, 6 tensors)

fc1.weight f4 [64, 18]
000000 46 43 0f ba d5 fa 74 3d 44 0f 3b be f0 b6 60 3d
       -0.00054650416 0.059809525 -0.18267542 0.054861963
000010 ef 3a 38 3e fe e1 1f be 1d 2d 19 3e f2 db 80 bb
       0.17991231 -0.15613553 0.14958616 -0.0039324695
000020 69 37 56 be 99 29 0a 3d b1 96 6f 3e 84 20 47 3e
       -0.20919575 0.033731077 0.23397328 0.19445997
000030 75 7b 20 be 33 cb 20 be f7 f8 b6 3d 76 0a a1 3d
       -0.15672095 -0.15702514 0.08934205 0.078633234
000040 a3 43 da bc 5f 4c 0d be fe 34 4b be ef 61 fa 3d
       -0.02664358 -0.13798665 -0.19844434 0.122257106
000050 bb 07 90 bc b3 92 5d be 89 6b 4f 3e 22 fb 16 3d
       -0.017581811 -0.21637993 0.20255865 0.036860593
000060 44 4c a7 3d 80 78 9f bd 55 cb 21 be c0 b2 6c be
       0.081688434 -0.077866554 -0.15800221 -0.23115063
000070 ef 3f 12 3e ea 09 04 be 19 cd a4 bd d1 f1 92 bd
       0.14282201 -0.12894407 -0.08046932 -0.07175029
000080 18 c9 dc bd 62 01 0b 3e 4f fe 20 be 05 11 a3 bd
       -0.10780543 0.13574746 -0.15722011 -0.079622306
000090 b9 a2 5e bd e5 79 00 be a2 05 5e be fb 88 1d be
       -0.054354403 -0.12546499 -0.21681836 -0.15384285
0000a0 e8 48 ec 3d aa 5b 45 bd c3 ee 39 3e 46 7c a7 bd
       0.11537343 -0.04818312 0.18157487 -0.08178
0000b0 f4 53 bc bc f0 50 06 3e 56 17 6e 3d a2 0e 87 bc
       -0.02298925 0.13116813 0.058127724 -0.01648647
0000c0 63 cd 4b 3e 1c b3 6f 3d f9 cd 41 be d6 9b 35 3e
       0.19902568 0.05852042 -0.18926229 0.17735228
0000d0 e8 7a f5 3d 43 2e 8e bc 3f 6a fc 3b 91 4c 32 be
       0.11986333 -0.017356044 0.007703095 -0.1741202
0000e0 d6 b7 fb bd 21 ec 54 3e 54 be 30 3e a1 94 0d 3e
       -0.12290923 0.20793201 0.17260104 0.13826229
0000f0 2f a0 0c 3e 8b 81 ea 3d f7 a4 48 3e 32 a0 0e bd
       0.1373298 0.114504896 0.19594179 -0.034820743
000100 65 b7 f5 3c ac 58 21 3d 08 00 93 bd f7 e4 02 bd
       0.029994676 0.039391205 -0.0717774 -0.03195664
000110 e5 ec 19 3e fd 26 5c be 1d 9a 0f 3e 62 9e 76 3c
       0.15031774 -0.21499248 0.14023633 0.01505241
000120 4c ed 0c bd 1e 08 3c 3e f1 ac b9 bd ab 24 02 3e
       -0.03440599 0.18362471 -0.09066189 0.127093
000130 ff 2f 70 3e a8 e2 bb bd 03 ba 2a 3e 3e 27 9e bd
       0.23455809 -0.091740906 0.1667252 -0.077223286
000140 8e 76 33 3e 40 af 53 3d eb 88 4f be 71 d4 42 3e
       0.17525694 0.051680803 -0.20267074 0.19026352
000150 38 0f 2f 3e a5 69 9b 3d ca b8 0a 3d 1b f3 23 be
       0.17095649 0.075885095 0.033867635 -0.16010706
000160 8c 57 00 be 4e b9 98 3d 21 fb 22 3e 5f 28 2a be
       -0.12533396 0.07457219 0.1591611 -0.16616963
000170 05 99 a2 bd a5 91 4a be 79 b4 14 be c9 45 44 3e
       -0.079393424 -0.19782121 -0.1452197 0.19167246
000180 ce 88 6a be 68 9a 07 be 27 a3 bc bd de 12 44 be
       -0.2290375 -0.13242495 -0.09210806 -0.19147822
000190 05 41 5d 3d 2c a2 d5 bc a3 7d fd bd b5 2d 97 bd
       0.054017086 -0.026078306 -0.12377479 -0.07381765
0001a0 35 af 5f 3e cd 75 47 3d c0 b3 6f be 4c 0c d6 bc
       0.2184418 0.048696328 -0.23408413 -0.02612891
0001b0 1d 5b f3 bc eb 7e 1d 3e a9 10 f3 3d f6 79 a0 3c
       -0.029706532 0.15380447 0.11868412 0.019589406
0001c0 28 e6 a4 bd 5a 66 ac bd e1 0f 12 3e 81 b6 48 bc
       -0.08051711 -0.084179595 0.1426387 -0.012250544
0001d0 02 f4 91 3d 1c 23 c4 bd 31 ab 11 3d 4e f8 3c be
       0.07126619 -0.09577009 0.03556365 -0.18454096
0001e0 46 23 43 be ac 24 48 be 4b 27 6b 3e 9b 48 59 3e
       -0.19056424 -0.19545239 0.22964208 0.21219103
0001f0 f2 d8 63 be be 60 59 be 6e 14 41 3e 0e ed 83 3d
       -0.22250727 -0.2122831 0.1885545 0.06441699
000200 ea af 03 be d5 df 7c 3d a9 36 08 be e8 e4 1e bc
       -0.12860075 0.0617369 -0.13302101 -0.00969813
000210 15 80 3f be e0 b2 b8 bd c0 e7 5d be a6 ec be 3d
       -0.18701203 -0.09018493 -0.21670437 0.09322481
000220 c6 7f dc 3d 55 66 4e be 6f b2 62 bd cb 18 b4 bd
       0.10766558 -0.20156224 -0.05534595 -0.087937914
000230 2e b3 92 3d 26 ea 43 be 05 fd 38 be 76 f3 90 3d
       0.07163082 -0.1913229 -0.1806527 0.070776865
000240 5c a7 3a bd c1 5b f7 3d 17 88 09 be cf 5a e0 bd
       -0.045569763 0.120780475 -0.1343082 -0.1095482
000250 92 87 a5 bd 38 a3 cf bd 17 f7 63 3e a5 4f 45 3e
       -0.080824986 -0.101385534 0.22262226 0.19268663
000260 2e de c4 bd 38 85 08 3e a3 48 1f bd 11 fb 84 3d
       -0.0961269 0.13332069 -0.03888763 0.064931996
000270 09 de fc 3d 8f 0b 2c 3c 35 5e 0e be ba e3 38 3e
       0.12347037 0.010500803 -0.13903125 0.18055621
000280 cc 8d a3 bd 61 bd 24 bc 48 ce 53 3e ba 1d ec bd
       -0.0798603 -0.010054917 0.20684159 -0.115291074
000290 12 ec ad 3d 35 b6 43 3e 0a b3 4a 3e df 65 48 3e
       0.084922925 0.19112475 0.1979486 0.1957011
0002a0 82 d1 3e 3e a0 e3 40 bb f6 13 3f be 40 5f 98 bd
       0.18634608 -0.002943255 -0.18659958 -0.074400425
0002b0 73 32 2c 3e fc 21 0b be 49 b6 38 3e 3e 59 23 3e
       0.1681612 -0.13587183 0.18038286 0.15952012
0002c0 52 07 3c bd e0 82 2b 3e d5 8c c2 bc 24 d9 51 3c
       -0.04590542 0.16749144 -0.023748795 0.012808118
0002d0 e9 13 15 3d 07 b6 50 be cc ce bb bd a4 fc dd 3d
       0.03639594 -0.20381938 -0.09170303 0.10839203
0002e0 eb 15 03 be b9 26 2f be 9f ff 60 3e 6e 1d 29 be
       -0.1280133 -0.17104615 0.21972512 -0.16515133
0002f0 bc 93 13 3e fb 18 83 bd 60 22 1c be 7c d7 c7 3d
       0.14411825 -0.06401249 -0.15247488 0.09757897
000300 30 9a 7e bd cc c4 23 3e ac b9 90 3d 28 a8 9e 3c
       -0.062158763 0.15993041 0.07066664 0.019367293
000310 15 9d 4b bb 23 c1 05 be db 05 a3 3c 37 b1 c0 bd
       -0.003106897 -0.13061957 0.019900253 -0.09408801
000320 51 ab 41 be 3e ff 19 be b0 8f 18 be f1 a7 1a 3d
       -0.18913008 -0.15038773 -0.14898562 0.037757818
000330 53 ad b2 b9 77 af 54 be 23 d3 1c 3e 74 56 d5 3c
       -0.00034079942 -0.2077006 0.15314917 0.0260422
000340 f2 65 60 bc a9 3f 77 bd 73 d8 47 3e 19 ff 0c 3e
       -0.013696181 -0.060363445 0.19516163 0.13769187
000350 df 57 46 3e d1 e9 9f 3d 60 4e 5a 3e 42 f3 0b 3e
       0.19369458 0.07808269 0.2131896 0.13667014
000360 9e 30 44 3d 4f 8f 04 be d4 41 71 3e 77 69 94 bd
       0.047897927 -0.12945293 0.23560268 -0.07246678
000370 22 fa 44 be fd 92 00 be 36 4b ab 3d 69 80 37 3e
       -0.19236043 -0.12556072 0.08363955 0.17920078
000380 d5 5d 6a bd 10 fe ef 3d 67 69 6c 3e aa bb 74 bc
       -0.05721839 0.117183805 0.23087083 -0.014937321
000390 90 4a 87 3d 90 c9 38 3c 61 1c 3f 3e b2 b5 18 3c
       0.066060185 0.011278525 0.1866317 0.009320663
0003a0 3d f6 e0 3d 88 48 40 bc 5b 02 a6 bd b3 e0 04 3e
       0.10984466 -0.011736043 -0.08105918 0.12976341
0003b0 24 bc fe bd f1 41 1f be 5f 66 28 3e e4 b4 1a 3e
       -0.12438229 -0.15552498 0.16445301 0.15108067
0003c0 8b 37 38 3e da c2 70 be a4 19 31 be ba e4 3b 3e
       0.17989938 -0.2351183 -0.17294937 0.18348971
0003d0 19 9b d3 3d eb 4a 08 3e cc 83 08 be 28 23 0f 3d
       0.10332317 0.13309829 -0.13331527 0.034945637
0003e0 7d 4e c3 bd 2e 41 d4 bd 7b ec 02 3d ca 25 cc 3a
       -0.09536455 -0.103639945 0.031963807 0.0015575227
0003f0 cd ba 26 3e 8c b5 15 be bb 5a f4 bc f5 07 d1 bb
       0.16282196 -0.14620036 -0.02982842 -0.0063791224

fc1.bias f4 [64]
000000 6b 24 39 be 05 b7 6b be bc 33 5d 3d 55 4c b9 bd
       -0.18080299 -0.23019035 0.054004416 -0.09047762
000010 7b 54 21 be 81 85 0f 3c 83 52 6a 3e d5 ae 5b be
       -0.15754883 0.008759857 0.22883038 -0.21453412
000020 77 87 08 bc 70 e3 0e be 4a fa d2 bd e7 99 06 bc
       -0.008333079 -0.13953948 -0.10301645 -0.008215404
000030 d6 88 82 bd e3 35 34 3c 72 2a 42 3e f3 7e 69 3e
       -0.06373756 0.010999176 0.18961504 0.22802334
000040 ff 2d 6e 3e ec d9 13 3d 58 18 57 3e 2e fb dc 3d
       0.23259734 0.0360965 0.2100538 0.10790096
000050 ea ee d1 3d 2c d3 4b 3e 0b 5c 58 be e0 14 16 3e
       0.10250647 0.19904774 -0.21128862 0.146564
000060 0f 24 4f 3c 3c 93 09 be 3a 97 4e 3d 73 f9 40 be
       0.012642874 -0.13435072 0.05043719 -0.18845157
000070 c8 c4 bc bd b1 bb 2e bc 51 1b 61 be a2 3a d1 bd
       -0.092172205 -0.010664866 -0.21983077 -0.102162614
000080 bb c8 19 3e 48 5a bf 3d 47 36 12 be 00 ed 60 bd
       0.15017979 0.09343392 -0.14278518 -0.05491352
000090 ee 42 0e 3e 6a 6e 32 be c6 59 8b 3b 04 d6 b3 3d
       0.13892719 -0.17424932 0.004252645 0.087810546
0000a0 0a c4 20 be 13 1e 43 3e 4d c4 a2 3d df bd 34 be
       -0.15699783 0.19054441 0.07947598 -0.17650555
0000b0 cc 0d 44 3e d2 1a 2e be d4 7b dc 3d a6 bb 23 3e
       0.19145888 -0.17002419 0.10765806 0.15989551
0000c0 0f b6 5b 3e f1 4c a7 3d 62 5c 13 bc 13 d2 f5 3d
       0.21456169 0.08168972 -0.008994194 0.12002959
0000d0 38 88 33 3e 74 0d 94 bc 33 2e 0f 3e 91 99 43 3e
       0.17532432 -0.018072821 0.13982467 0.1910155
0000e0 dc 43 6c be 24 1c 03 3e 07 43 58 be b1 b8 75 bc
       -0.23072761 0.12803704 -0.21119319 -0.014997647
0000f0 a6 e2 a9 3d ea 80 ed 3d c6 d2 18 be af c3 a3 3d
       0.08295183 0.11596854 -0.14924154 0.07996308

fc2.weight f4 [64, 64]
000000 38 0a 7a 3d 60 fd ec bc de 28 c8 3d 60 5b a1 bd
       0.0610449 -0.028929412 0.0977342 -0.078787565
000010 64 d4 79 3d 6c 2b 41 bd 24 f1 64 3d fe dc e1 3d
       0.060993567 -0.04716055 0.055894032 0.11028479
000020 a0 fc dc bc 8e e9 c1 bd 8a 15 f6 3d 78 83 9a bc
       -0.02697593 -0.09468375 0.12015827 -0.018861517
000030 f0 ce b6 3d 80 e3 89 3a 46 b6 d8 bd 98 cc e0 3c
       0.08926189 0.0010520071 -0.10581641 0.027441308
000040 80 2d e1 bc 80 f5 5a bd e0 7c 80 bc 0c 5c de bd
       -0.027487516 -0.053456783 -0.015684545 -0.108574
000050 d6 d6 d7 bd f0 32 e3 bc 06 34 86 bd 80 e6 e5 bb
       -0.105390236 -0.02773425 -0.065528914 -0.007016003
000060 12 bb b7 3d 28 d2 e5 bc 80 65 dd 3c 14 79 34 3d
       0.08971228 -0.028054312 0.027025938 0.04406078
000070 8a 8b 89 bd f0 7a fd bd 00 e6 06 ba a0 0c 87 bc
       -0.06716068 -0.12376964 -0.0005145967 -0.016485512
000080 78 6d f5 3c 24 d6 33 bd 54 fd 29 bd fc 77 f0 3d
       0.029959425 -0.043905392 -0.04150136 0.11741635
000090 42 b4 8d bd f6 ff 86 3d f8 4b a8 bc ac 5d 2b bd
       -0.06919147 0.065917894 -0.020544037 -0.04183738
0000a0 6e 4d b9 3d ec f3 53 3d c8 c7 3e bd f0 01 8a 3d
       0.09047972 0.051746294 -0.046577245 0.06738651
0000b0 30 3a db 3c 9c 9f bd bd d8 5f af 3c 20 73 95 bc
       0.026761144 -0.09258959 0.021408007 -0.018243372
0000c0 70 ec e1 3d b4 2d 31 3d a0 ce 14 3c 50 2e ef 3c
       0.11031425 0.043256477 0.009082466 0.029196888
0000d0 50 9c 7a 3d 1c e1 e3 bd 44 ae 97 bd d0 7e 52 bd
       0.061184227 -0.111269206 -0.074062854 -0.05139047
0000e0 04 dd 05 3d a8 86 70 3d 50 f7 d0 bc 60 ef b7 3c
       0.03268148 0.05872217 -0.025508553 0.02245301
0000f0 32 34 a8 bd e0 2e 33 bc f6 b0 a3 bd ac 8a 8d 3d
       -0.082130805 -0.010936469 -0.07992737 0.06911215
000100 14 1c 3f bd 64 bd 77 bd 54 d6 50 3d 00 a7 83 bd
       -0.046657637 -0.06048335 0.05098565 -0.06428337
000110 cc af 4a bd 74 ab 87 bd 30 86 ee 3c 00 66 f7 bd
       -0.04948406 -0.06624499 0.02911672 -0.12080002
000120 f4 e2 2b 3d c8 bd 7a 3d 20 f6 e8 bb 5e a1 cb 3d
       0.041964486 0.061216146 -0.0071094185 0.09942888
000130 74 ec 8c bd b8 5f 0b bd 66 aa 94 3d e0 cc 10 3c
       -0.06881037 -0.03402683 0.072590634 0.0088379085
000140 cc 2c 62 3d 5c 96 80 bd 62 44 d4 3d e8 0e b3 3d
       0.055218503 -0.06278679 0.103646055 0.087430775
000150 b0 09 2f bc 78 e0 f9 bd d0 65 60 bd d4 c6 54 3d
       -0.010683462 -0.12201017 -0.054784596 0.05194743
000160 a4 d2 87 bd 10 d9 6a bc 02 2c ca 3d 76 94 fa 3d
       -0.066319734 -0.014333978 0.09871675 0.12235348
000170 c8 85 c8 3d 00 dd 21 bc 28 43 e0 bd ec 50 aa 3d
       0.09791142 -0.009879351 -0.10950309 0.08316216
000180 74 60 be 3d 9c 3e ef bd 8e 69 e7 3d a8 f5 68 3d
       0.09295741 -0.11681864 0.1129943 0.0568749
000190 dc 5e 07 3d b0 7e 0e bc a4 41 b3 bd 80 a0 e0 3d
       0.03304945 -0.008697197 -0.08752754 0.10968113
0001a0 bc d8 c2 bd 3e c9 82 3d dc 9d 59 bd c0 2e fe bc
       -0.09513995 0.0638604 -0.053129062 -0.031028152
0001b0 00 c6 ba 39 66 de a0 3d 10 b6 6d 3c 80 5d fe 3d
       0.00035624206 0.07854919 0.014508739 0.124201775
0001c0 00 e5 51 ba c0 33 9a 3d f8 19 d8 bd d4 92 8e 3d
       -0.0008006841 0.07529402 -0.10551828 0.06961599
0001d0 f6 fa 8d bd 04 f0 65 bd 98 63 fc bd 80 6f 46 3b
       -0.069326326 -0.0561371 -0.123236835 0.0030278862
0001e0 b8 de d1 3d 04 70 21 3d a4 48 9f 3d 58 62 ac 3c
       0.10247558 0.039413467 0.07777527 0.021042988
0001f0 90 71 b1 3d 4e 9a f8 3d b0 d5 9a bd 5a 1d c2 3d
       0.086642385 0.12138806 -0.07560289 0.094782546
000200 4c ab 87 bd 0e 13 d6 3d 4e 36 91 bd 56 a6 e9 bd
       -0.06624469 0.10452853 -0.07090436 -0.11408679
000210 a4 0e af bd 24 23 66 bd 6c 6c 90 bd 40 19 24 3b
       -0.08547714 -0.056185856 -0.0705193 0.0025039464
000220 98 2b 1a 3d fa f2 cd bd 00 13 7a 3d 00 52 1f 3a
       0.03763923 -0.1005611 0.061053276 0.00060775876
000230 ee f3 ff bd 20 aa 8f bb 1e af d9 3d c0 32 f1 bd
       -0.12497698 -0.004384294 0.10629104 -0.11777258
000240 98 b6 bd 3c b8 07 86 3c 0a ee f0 3d f4 8b 39 bd
       0.023158357 0.016361102 0.11764152 -0.045299485
000250 f0 c5 d6 3c 48 3d c0 bc ea e4 ad bd 18 59 ff bd
       0.02621743 -0.023466721 -0.084909275 -0.12468165
000260 16 d3 93 bd 1e 0b cb 3d e2 37 fb bd e0 d1 75 3c
       -0.07217996 0.0991423 -0.12266518 0.015003651
000270 1e 1f b1 bd c0 58 45 3b ae 09 ef bd 6c 9f f5 bd
       -0.08648513 0.0030112714 -0.11671768 -0.11993298
000280 dc 8f 00 3d b8 a3 ea bd 2c a1 d5 bd 50 2c e2 3c
       0.031387195 -0.11457008 -0.10431132 0.02760902
000290 fa a3 a0 bd ec 4a 0f 3d f0 f7 95 3c 38 c2 a9 bc
       -0.07843776 0.03498356 0.018306702 -0.020722494
0002a0 dc d8 5f 3d 40 bd 79 3d 20 d3 a6 bb 6a dd bd bd
       0.054650173 0.0609715 -0.005091086 -0.09270747
0002b0 80 25 89 3a 7c 04 50 3d 9c 3e 8f bd c0 e6 87 3c
       0.0010463446 0.050785527 -0.06994364 0.016589522
0002c0 50 ff 3d 3d 7c b5 0c bd f4 23 d3 bd 50 08 ff 3d
       0.046386063 -0.034352764 -0.10309592 0.12452757
0002d0 0c 3c 0e bd ac fc 83 3d 68 39 d4 3d e0 1e 92 3d
       -0.034725234 0.06444678 0.10362512 0.07134795
0002e0 c0 ff dc bb 34 19 2c 3d 00 c9 7e bb 40 24 e0 bc
       -0.006744355 0.042016223 -0.003887713 -0.027361035
0002f0 f0 8a 64 3c b6 c8 be 3d 2c 0a 4c 3d c8 f4 ec bd
       0.013949141 0.09315626 0.04981439 -0.11570126
000300 22 59 b1 3d 3e 67 e2 3d 58 0a 89 3d a4 dd 7e bd
       0.08659579 0.11054848 0.06691426 -0.06222309
000310 ae 8b 85 bd a8 4a a3 3c d0 91 29 bc b8 84 e9 bc
       -0.065207824 0.01993306 -0.010349706 -0.028505668
000320 34 18 b3 bd 60 92 d6 bd 06 93 b7 bd 32 0f e1 3d
       -0.08744851 -0.104771376 -0.08963589 0.109892264
000330 24 e8 37 bd b4 cb 0d 3d 60 35 e0 bd 32 a3 d3 bd
       -0.04489912 0.034618095 -0.109476805 -0.103338614
000340 fa 7a ef bd 78 bf 18 bd 5c 44 2c 3d 58 b3 3f 3d
       -0.11693378 -0.037291974 0.04205738 0.046801895
000350 0c 74 bd bd 72 ed 97 bd 20 7b 97 3d 90 7f dd bc
       -0.0925065 -0.07418336 0.07396531 -0.027038366
000360 40 ca aa 3b 8a cf 83 3d fa f4 c2 bd ec b3 b2 3d
       0.0052120984 0.06436069 -0.09519382 0.087257236
000370 94 ee cf 3d 8a 29 d1 3d ee b5 dc 3d e0 d7 ca bd
       0.10152927 0.10213001 0.10776888 -0.09904456
000380 d6 6d f3 3d 80 b6 0d 3b da f6 b8 bd 04 b6 c8 bd
       0.11886184 0.002162367 -0.09031458 -0.09800342
000390 c4 1e 18 3d 06 60 cd bd 24 13 cb 3d 14 32 c3 bd
       0.037138715 -0.10028081 0.0991576 -0.09531036
0003a0 1c b9 aa bd 84 04 d2 bd 18 59 07 bd a4 6e e3 3d
       -0.08336088 -0.102547675 -0.03304395 0.111050874
0003b0 86 f0 ca bd c0 53 1b 3b c8 1d eb bc 56 99 d4 3d
       -0.099091575 0.0023701042 -0.028700724 0.10380809
0003c0 14 40 83 bd 00 0f 39 ba d8 b9 06 3d b0 2b fd 3c
       -0.06408706 -0.0007059425 0.03289208 0.03090462
0003d0 f4 8d 7d bd 4a b8 ad bd e2 f2 cf bd 3c 29 e9 bd
       -0.061902955 -0.08482416 -0.10153748 -0.11384818
0003e0 00 ee 83 ba 70 d8 eb 3d c0 22 2f 3c 3c 96 74 bd
       -0.0010065436 0.115158916 0.010689437 -0.059713587
0003f0 e8 0e c4 3c d0 c7 7c 3c 00 d1 b4 3c 40 a1 fa 3b
       0.02393289 0.015428498 0.022072315 0.007648617

fc2.bias f4 [64]
000000 cc ec 11 bd 70 04 ba bd 26 58 8f 3d a4 16 c1 3d
       -0.035626218 -0.09082878 0.06999235 0.094281465
000010 82 92 ec 3d e0 a9 62 3d 6c 16 b1 bd cc ac 7d 3d
       0.11551382 0.055337787 -0.08646855 0.06193237
000020 22 85 f9 3d 9c 0f ab 3d e0 67 9b bd 58 5e 52 bd
       0.12183596 0.083525866 -0.07588172 -0.051359504
000030 78 e2 5f bd d8 94 44 3d ac 18 98 bd c0 b0 c5 bb
       -0.054659337 0.04799351 -0.07426581 -0.006033033
000040 b8 46 97 3c 00 f1 56 ba f4 eb e7 bd 0e 1a d5 3d
       0.018466339 -0.0008199364 -0.11324301 0.1040536
000050 52 3e cf 3d 6c 32 a4 3d e8 ed 22 bd a8 f8 fb bd
       0.101193085 0.0801743 -0.039777666 -0.12303287
000060 74 f2 7e bd 34 e6 b6 3d a8 33 cd bc fa ee fb bd
       -0.06224294 0.089306265 -0.025049046 -0.123014405
000070 a8 fb ee 3d ca 32 99 3d fc 65 9c bd 70 97 f1 bd
       0.11669093 0.0748039 -0.076366395 -0.117964625
000080 70 72 42 3c 5c 80 da 3d 78 8d d7 bd 5c 76 60 3d
       0.011868104 0.10669014 -0.1052503 0.054800376
000090 5c 72 4a bd 40 4a 6a 3b 0c da 24 3d cc 6d 73 bd
       -0.049425468 0.0035749823 0.04024701 -0.059430882
0000a0 f0 05 8b 3d 68 91 13 bd 4c ea 38 bd a4 08 30 3d
       0.06788242 -0.036027342 -0.045145318 0.04297699
0000b0 d8 e3 f3 bd 88 99 9c bd 84 14 da bd 3e c4 fb 3d
       -0.11908692 -0.07646471 -0.10648444 0.122932896
0000c0 c6 4c 93 bd 70 3a d2 bd c0 09 1a bb c0 d8 14 3b
       -0.07192378 -0.10265052 -0.0023504347 0.00227122
0000d0 0e f5 f0 3d 18 49 c8 bc b6 a7 98 3d 68 0e c5 3d
       0.117654905 -0.024448916 0.07453863 0.096218884
0000e0 e0 33 a8 bb c0 6b ca 3c 42 bc df 3d cc e8 5e bd
       -0.005133137 0.024709582 0.10924579 -0.05442123
0000f0 10 74 af 3d 70 d2 87 bd f2 6f ba 3d 96 dd 96 3d
       0.08567059 -0.06631935 0.09103383 0.07366483

out.weight f4 [18, 64]
000000 6e 44 f0 3d f8 34 2e 3d e8 b9 dc 3d 58 7c fc bd
       0.11731802 0.042530984 0.10777646 -0.12328404
000010 00 db 13 3b 1c 38 05 bd e0 3f 42 bd e4 86 9c bd
       0.0022560954 -0.032524213 -0.047424197 -0.07642916
000020 28 3c b0 bd 48 1f 99 bd 30 4a a8 3c c8 7f 48 bd
       -0.08605224 -0.074766695 0.020543188 -0.048949987
000030 20 52 a5 3d 80 59 46 bd ea 6e f8 3d e0 f7 a0 3b
       0.08072305 -0.048425198 0.1213053 0.0049123615
000040 c4 eb e2 3d 90 87 f8 3d b0 ab 42 bc f8 44 23 bd
       0.11080125 0.121352315 -0.011881754 -0.039860696
000050 3c 58 45 bd 00 d9 8f 3d 00 7d 85 bd 86 df a0 3d
       -0.04817985 0.07023811 -0.065179825 0.07855134
000060 d6 5b fd 3d 3a 24 9c 3d e8 ae 2c bd d0 44 0f 3c
       0.12371032 0.07624097 -0.04215899 0.0087444335
000070 9c 57 e9 bd 60 80 50 3c 38 21 3a bd 0a fd ee bd
       -0.11393663 0.0127259195 -0.045441836 -0.11669357
000080 60 d8 4c 3d 90 72 34 3d b0 4a 8a bc 08 20 da bd
       0.05001104 0.044054568 -0.016881317 -0.10650641
000090 f4 d2 ac 3d 12 9b f4 3d 74 94 95 bd 00 7d 00 bc
       0.084386736 0.1194364 -0.07303706 -0.007842302
0000a0 7c 3d 72 3d 40 17 1f bd 16 0b a0 bd a0 5c 06 3c
       0.059140667 -0.038840532 -0.078146145 0.008200794
0000b0 4c dc 49 bd e2 a1 96 bd 80 0d 72 bc d2 ed ff bd
       -0.049282357 -0.073550954 -0.014773726 -0.124965325
0000c0 00 51 ed ba ec 40 53 3d ac b4 d3 3d 9c 2a 7e 3d
       -0.0018105805 0.051575586 0.10337195 0.062052354
0000d0 40 2c ff 3b d8 f2 b3 bd 6c 88 87 bd e2 32 b7 3d
       0.0077872574 -0.08786553 -0.06617817 0.08945252
0000e0 ae 7f 9a 3d fc 29 17 bd 60 93 bd 3d 22 a6 d4 3d
       0.07543884 -0.036905274 0.09256625 0.1038325
0000f0 e6 4c eb bd 82 e1 dc bd be 9e d7 bd c0 3a 50 bd
       -0.114892766 -0.107852 -0.105283245 -0.05083728
000100 c0 3a e2 bc 22 1f b9 bd 5c dd 2a bd 88 be d4 3d
       -0.027615905 -0.09039141 -0.04171501 0.103879035
000110 0e 65 f1 3d d0 f1 e9 3d ac b3 ee 3d 48 45 cc 3d
       0.11786853 0.11423075 0.116553634 0.09974152
000120 f8 1e 7f 3d 0c c0 ea 3d 56 5c f6 3d 74 eb 08 bd
       0.062285393 0.11462411 0.120293304 -0.03342767
000130 ee da ca 3d ae 8c 98 3d 68 e7 95 3c a4 87 2e bd
       0.09905039 0.074487075 0.01829882 -0.042609826
000140 02 a8 a6 bd 1c 34 14 3d b2 29 a0 bd e0 ac 39 bd
       -0.08137514 0.036182508 -0.07820453 -0.045330882
000150 14 b7 2d bd a0 93 d2 3c 4a 86 dd 3d e8 ca 62 3d
       -0.042410925 0.025705159 0.10816629 0.055369288
000160 40 89 56 3c 00 1b 2e 3d 94 c9 69 3d a0 ca 41 bd
       0.013094246 0.042506218 0.057077006 -0.04731238
000170 06 d6 82 3d 84 a3 d6 3d 38 84 5c bd c8 24 a6 3c
       0.06388478 0.10480407 -0.05383703 0.02028121
000180 6e 18 c5 bd 10 bb 36 3d e4 02 57 3d 20 a9 f8 3c
       -0.096238 0.04461199 0.05249299 0.030354083
000190 a4 5e 85 bd 68 e8 c9 3d 1a fc c5 3d d0 7d f7 3c
       -0.06512192 0.09858781 0.09667225 0.03021136
0001a0 70 65 17 3c 12 86 e6 bd aa 49 eb 3d 86 97 e3 3d
       0.009240493 -0.11256041 0.1148866 0.11112885
0001b0 b8 9c 9a 3c 48 02 c9 bd d4 36 c8 bd 40 d9 4e bb
       0.018873557 -0.09814888 -0.09776083 -0.0031562597
0001c0 e0 98 66 3c 0e a9 d3 bd 46 ed 9e bd 90 60 cb 3c
       0.014074534 -0.10334979 -0.077601 0.024826318
0001d0 e8 f4 f7 3d e2 e7 f0 bd 02 13 9b 3d 40 7f 1a bc
       0.12107259 -0.11762978 0.07571985 -0.009429753
0001e0 48 04 32 bd 00 d0 55 bc b0 bb b2 3d 80 82 24 3d
       -0.043461114 -0.013050079 0.08727205 0.040163517
0001f0 04 5b db bd 88 ee 70 bd e0 98 02 bd 14 e0 8b 3d
       -0.10710719 -0.05882123 -0.031884074 0.06829849
000200 30 43 a3 bd 86 64 b3 3d d4 79 54 3d 46 c7 a9 3d
       -0.079717994 0.08759408 0.051873997 0.082899615
000210 20 3e 2e bd 80 ed 69 bb 40 94 dd bc 4c 2a 83 bd
       -0.042539716 -0.003569454 -0.02704823 -0.06404552
000220 f6 e0 88 bd 10 6b a8 bd 80 2c ec 3d 34 28 82 3d
       -0.06683533 -0.082235456 0.11531925 0.063553244
000230 da 32 85 bd 3c 00 d6 bd d8 04 b8 bd 30 83 b2 3c
       -0.0650384 -0.104492635 -0.08985299 0.02179107
000240 dc 84 b2 3d 00 bf 6e 3a 0c 8f e4 3d 48 73 d9 bd
       0.08716747 0.0009107441 0.111600965 -0.10617691
000250 98 e8 88 3d f8 0c c5 3d 64 a3 f9 3d 46 43 b6 bd
       0.06684989 0.09621614 0.121893674 -0.0889955
000260 dc 0a 70 bd ce 55 c5 3d d0 99 2d 3d 92 f7 ec 3d
       -0.058604106 0.096355066 0.042383015 0.11570658
000270 0a 38 d0 3d 8c ec 24 3d 72 b6 91 3d fa 9e 84 3d
       0.101669386 0.04026465 0.07114877 0.06475635
000280 fc 49 b6 3d 16 d5 a0 3d 38 65 9f bc 00 8e 8f bb
       0.0890083 0.07853143 -0.019457445 -0.0043809414
000290 8e 31 ef 3d ca c0 b9 3d 28 00 6b 3d da 7c fd 3d
       0.11679374 0.09069975 0.057373196 0.12377329
0002a0 b0 cd df 3c 20 ad 7e bd f8 e3 c2 bd 00 ae f4 3d
       0.02731976 -0.062176824 -0.09516138 0.1194725
0002b0 28 f6 9d bd 64 bc 8d 3d 96 d8 ac 3d 00 5c ec bd
       -0.07712966 0.06920698 0.08439748 -0.11540985
0002c0 20 3e 6e 3d 48 6b 2f 3d de 0b f7 bd ec ca 9c bd
       0.058164716 0.04282692 -0.1206281 -0.07655892
0002d0 22 49 c7 bd ec ff 2d bd 90 6e 01 bc 3a 6b 89 3d
       -0.09730746 -0.042480394 -0.007899895 0.06709905
0002e0 7e 81 c0 bd ea e2 9c bd 50 cf 93 3d 10 3c 73 bd
       -0.09399699 -0.07660468 0.07217276 -0.059383452
0002f0 f2 84 8d 3d f8 41 a0 3d 34 96 2f bd f4 76 f3 bd
       0.06910123 0.078250825 -0.042867854 -0.11887923
000300 d0 45 ad bc 06 00 e1 bd 0c e3 c0 3d a6 3b f8 bd
       -0.021151453 -0.109863326 0.09418306 -0.12120752
000310 e2 43 ec bd 00 9b f2 ba c8 93 ed bc 58 2e 4a 3d
       -0.11536385 -0.0018509328 -0.029001132 0.049360603
000320 b0 da 41 3c 2a 1b b9 bd 96 ca ef bd c0 f7 b9 bd
       0.011831924 -0.09038384 -0.11708562 -0.09080458
000330 00 f4 35 b9 80 7d ad 3d 0c ca cf bd d0 58 df bc
       -0.00017352402 0.08471203 -0.10145959 -0.027264029
000340 20 10 f8 3d 9e 25 b8 bd 60 82 59 bd 88 a1 93 bc
       0.121124506 -0.0899155 -0.05310285 -0.01802136
000350 a0 4b 52 bd 5c 70 71 3d d0 fb 4e bd 4c e9 dd bd
       -0.051341653 0.058945045 -0.050533116 -0.108355135
000360 a4 0d 34 bd 92 9c 8e bd 9c c3 12 bd a8 d9 55 3d
       -0.04395832 -0.06963457 -0.03583108 0.052209526
000370 68 ed c8 3c e6 ee 9e 3d 7a 91 ed bd 44 34 ba 3d
       0.024527267 0.0776041 -0.11600013 0.09092
000380 58 72 9b 3d 84 6d d0 3d 24 64 aa 3d 1e fc e3 3d
       0.07590169 0.101771384 0.083198816 0.11132072
000390 00 c8 6b 39 64 31 73 bd 6c 40 bc 3d 86 e8 91 bd
       0.00022485852 -0.059373274 0.09191975 -0.071244285
0003a0 4a 11 f1 3d 84 ca e8 3d cc da 9e bd e8 88 d5 bc
       0.11770876 0.11366752 -0.07756576 -0.026066259
0003b0 80 3e 93 3a 56 3b 96 bd 88 55 8e bd 70 94 a9 bd
       0.0011233836 -0.07335536 -0.069499075 -0.08280265
0003c0 5e 0d 8f 3d 04 c5 5a bd 50 f2 fb bd a0 de 75 bd
       0.069849715 -0.053410545 -0.12302077 -0.060026765
0003d0 e2 0e d7 bd d0 79 a6 bc c0 e3 a5 bb 3e 2c f2 3d
       -0.105008855 -0.020321757 -0.0050625503 0.11824845
0003e0 64 be 49 bd 86 b4 e6 bd 64 06 42 3d 10 1d 0e 3c
       -0.049253836 -0.11264901 0.047369376 0.008673921
0003f0 74 fe 00 3d c0 4d e9 bc 2c 6c 6b 3d 20 29 63 3d
       0.031492665 -0.028479457 0.057476208 0.05545914

out.bias f4 [18]
000000 66 db 80 3d 76 54 8f bd 14 43 2f 3d 04 51 17 3d
       0.06291847 -0.069985315 0.04278858 0.036942497
000010 34 69 4d bd a8 63 98 3d 30 f9 f5 3c 98 85 85 3d
       -0.050149158 0.07440883 0.030026048 0.065196216
000020 dc 05 36 3d 62 db b6 3d 80 9b 06 3b 90 04 48 bc
       0.04443918 0.08928563 0.0020539463 -0.012208119
000030 c8 e8 ee bd 3c 44 25 3d c0 cc 5e 3d 3a 78 f5 3d
       -0.11665493 0.040348276 0.054394484 0.11985822
000040 74 94 ee 3d bc 89 d3 3d
       0.11649409 0.10329005
